TL-ERC/generative_weights/best_concat_model.pth (torch, 635944 bytes, 4 tensors)

fc1.weight f4 [256, 612]
0	0x3d462d17	0.048382845
1	0xbc9d0068	-0.019165233
2	0xbbdef710	-0.0068043545
3	0x3de56e99	0.112027355
4	0xbc7cb3f3	-0.015423763
5	0xbdb63674	-0.08897105
6	0xbcbdb1a7	-0.023156
7	0x3c63757d	0.013882992
8	0x3cdd59fe	0.02702045
9	0x3da8b012	0.08236708
10	0xbd8d4e41	-0.068996914
11	0x3d6b53d5	0.057452995
12	0xbd5a4351	-0.053286854
13	0x3cb8568a	0.022502203
14	0xbcf9a53f	-0.030474303
15	0x3cbf004e	0.023315575
16	0xbe5230c8	-0.20526421
17	0x3d8850d6	0.06656043
18	0x3e219657	0.15780006
19	0x3dffe07b	0.12493988
20	0x3ce3f70a	0.027827758
21	0xbd8ac5e7	-0.06776028
22	0x3de2092c	0.11036906
23	0x3d2f7be9	0.04284278
24	0x3af7e034	0.0018911422
25	0x3d66ae75	0.05631872
26	0x3d946622	0.07246043
27	0xbc373899	-0.0111829275
28	0x3cef7940	0.029232621
29	0x3d90eb93	0.07076182
30	0xbc067939	-0.008207613
31	0x3d4364b2	0.047703452
32	0xbd6c136b	-0.057635706
33	0x3d546e6d	0.051863123
34	0xbd45a239	-0.04825041
35	0xbc865e75	-0.016402462
36	0x3ddde98a	0.1083556
37	0xbdebe2b2	-0.11517848
38	0xbbc763a3	-0.0060848757
39	0x3b405cf5	0.0029352282
40	0xbe559440	-0.20857334
41	0x3d8aba1e	0.0677378
42	0x3d527a67	0.051386263
43	0x3d5c6b53	0.05381329
44	0xbdd03aed	-0.10167489
45	0xbcc904fc	-0.02453851
46	0x3bb9bca5	0.00566824
47	0xbc46bebc	-0.012130436
48	0x3e7d1a06	0.24716958
49	0x3be34122	0.0069352547
50	0xbe182b4b	-0.14860265
51	0x3d461827	0.048362877
52	0x3e8538d6	0.26019925
53	0x3c692297	0.014229438
54	0xbe9363a2	-0.2878695
55	0xbbf11c94	-0.007358143
56	0x3d7c9754	0.061667755
57	0x3e2a0636	0.16603932
58	0xbd2c9442	-0.042133577
59	0x3b5c0859	0.0033574312
60	0xbd98808e	-0.07446395
61	0xbd4097cc	-0.047019765
62	0x3cb28089	0.021789806
63	0x3a3d087a	0.0007211041
64	0xbd027380	-0.03184843
65	0xbb40c6c0	-0.002941534
66	0x3d430e43	0.047621023
67	0xbce801d0	-0.028321177
68	0x3d691cb5	0.056912143
69	0xbd8991fe	-0.06717299
70	0x3dd9372c	0.10606226
71	0xbe9bdf9a	-0.30444032
72	0xbd085f76	-0.033294164
73	0xbd6d22e7	-0.057894614
74	0xbda725d1	-0.0816151
75	0x3d104685	0.035223503
76	0x3d34823f	0.044069525
77	0x3c36a62c	0.011148017
78	0xbe118721	-0.14211704
79	0x3cc99bdb	0.02461045
80	0x3d4efba1	0.05053294
81	0x3cb28542	0.021792058
82	0x3c0dec2c	0.008662265
83	0xbcf966d3	-0.030444538
84	0xb96bfb6a	-0.00022505005
85	0x3c575348	0.013142414
86	0xba8e6fe4	-0.0010867086
87	0xbc8e6764	-0.017383285
88	0xbc031b29	-0.008002081
89	0x3bb94dd4	0.00565503
90	0xbb6ba96b	-0.0035959135
91	0xbd3f48fa	-0.046700455
92	0xbc424cc7	-0.011859125
93	0x3de0dd9a	0.10979767
94	0xbdb09a88	-0.086232245
95	0xbd8f4f9e	-0.06997608
96	0xbd46cd0e	-0.0485354
97	0xbe8290eb	-0.2550119
98	0xbc210dad	-0.009829921
99	0xbcfab62f	-0.03060445
100	0x3e804ec2	0.25060087
101	0xbe2cb8a3	-0.16867308
102	0xbe84f203	-0.2596589
103	0xbb6e4bc1	-0.003636107
104	0xbd199c9f	-0.03750288
105	0xbdcbd9b6	-0.099536344
106	0x3de23ae7	0.11046391
107	0x3de4e00a	0.111755446
108	0x3d91ecd7	0.07125252
109	0x3e5f0a88	0.21781361
110	0xbca8c3d0	-0.020601183
111	0x3dc8869a	0.09791298
112	0x3c2aa9f0	0.010416493
113	0xbb779456	-0.0037777624
114	0xbe331dc1	-0.17491819
115	0x3cc72fdc	0.024314813
116	0x3e1089bd	0.14115043
117	0x3d119698	0.035544008
118	0xbe1d09c5	-0.15335758
119	0xbe4070f7	-0.18793093
120	0x3e72a41b	0.23695414
121	0x3e3654b6	0.17805752
122	0x3eb726c0	0.3577175
123	0x3e654be2	0.22392228
124	0xbccd4041	-0.025055053
125	0x3e54f2d3	0.20795755
126	0xbd00d52d	-0.0314533
127	0xbe06f088	-0.13177693
128	0x3e806329	0.25075653
129	0x3e91ed3b	0.28501305
130	0xbdf5afd4	-0.11996427
131	0x3eae459c	0.34037483
132	0x3eabf257	0.33583328
133	0x3a806e25	0.0009798451
134	0xbb81e078	-0.0039635263
135	0x3ebea57f	0.37235638
136	0x3e8777b9	0.2645853
137	0x3c098b48	0.008395024
138	0xbd7c3110	-0.061570227
139	0x3e16d4bd	0.1472959
140	0x3e2cf0b1	0.16888691
141	0xbe10a4b4	-0.1412533
142	0xbd868139	-0.06567616
143	0x3dd3bfe1	0.10339332
144	0x3eecf4a4	0.46280396
145	0x3e86637f	0.26247784
146	0xbcb0d9e4	-0.021588273
147	0x3ec70631	0.3887191
148	0x3e085014	0.13311797
149	0x3e119c84	0.14219862
150	0xbcc20059	-0.023681806
151	0xbdc9d554	-0.09855142
152	0xbc2fa806	-0.010721212
153	0x3d626e77	0.05528113
154	0xbd224013	-0.039611887
155	0xbe19cee5	-0.1502033
156	0xbe62537c	-0.2210216
157	0xbbe586ea	-0.0070046084
158	0x3d87d6ff	0.06632804
159	0x3e3802bc	0.17969793
160	0xbcd694b0	-0.026193947
161	0xbd90c4eb	-0.07068809
162	0xbd5949fc	-0.053049073
163	0x3edd05de	0.4316854
164	0xbb1a2160	-0.0023518428
165	0xbd358e1a	-0.04432497
166	0x3e828315	0.25490633
167	0xbd6d0c2b	-0.057872932
168	0xbe8c77d4	-0.27435172
169	0x3da3b04d	0.07992611
170	0x3e3f6e42	0.18694404
171	0xbe31b9c9	-0.17356028
172	0x3d620c86	0.055187725
173	0xbe608ee5	-0.2192951
174	0x3dd8d961	0.10588337
175	0x3bdc3628	0.006720323
176	0xbf1a866a	-0.6036135
177	0xbc229ef5	-0.009925594
178	0xbebdc9e6	-0.370681
179	0xbe44e260	-0.1922698
180	0x3c92a72e	0.017901983
181	0x3e260b05	0.16215141
182	0xbe540fc7	-0.20709144
183	0xbec28a51	-0.37996152
184	0x3c4aa054	0.012367327
185	0x3e4a2e88	0.19744313
186	0xbe5d021b	-0.21582834
187	0x3ea8e7b3	0.32989272
188	0xbe7fef18	-0.24993551
189	0xbe2b4bb0	-0.16728091
190	0x3c557a48	0.013029642
191	0x3deece2f	0.1166042
192	0x3bb7063d	0.0055854605
193	0xbe474b7e	-0.19462392
194	0x3e6f6f60	0.2338233
195	0xbd02de19	-0.03195009
196	0xbc244d34	-0.010028172
197	0x3def2898	0.116776645
198	0x3ebcb153	0.36854038
199	0xbb953250	-0.004553117
200	0x3e058a2f	0.13040994
201	0xbc749e7b	-0.014930363
202	0x3ea3bd28	0.31980252
203	0x3c74545c	0.014912691
204	0x3ec4308b	0.38318285
205	0xbd5799a8	-0.052636772
206	0xbc3ba8e8	-0.011453845
207	0x3d72f947	0.05931976
208	0xbee734fd	-0.45157614
209	0xbb710a7f	-0.0036779938
210	0xbeaf7a19	-0.3427284
211	0x3e22cf69	0.15899433
212	0x3cdb1000	0.026741028
213	0x3e658a21	0.22415973
214	0xbc476274	-0.012169469
215	0xbe2d4e27	-0.16924344
216	0xbed0dc2d	-0.4079298
217	0x3e0bd45e	0.1365523
218	0x395a6300	0.0002082698
219	0x3e2a73ad	0.1664569
220	0xbe4bbe99	-0.19896926
221	0xbe8302e1	-0.25588134
222	0xbe7f2797	-0.24917446
223	0x3e5d4995	0.216101
224	0xbd696960	-0.05698526
225	0x3ecda5d3	0.40165576
226	0x3e0f8d41	0.14018728
227	0x3ed2eab4	0.4119469
228	0x3e83f72e	0.2577452
229	0x3e313f08	0.17309201
230	0xbe223f84	-0.15844542
231	0xbecd4d26	-0.40097922
232	0x3d1ff35d	0.03905045
233	0xbe2ea8ba	-0.17056552
234	0xbbdeaa7e	-0.0067952266
235	0x3d497135	0.04918023
236	0x3ce55d67	0.02799864
237	0x3e8ccb03	0.27498636
238	0xbca5218b	-0.020157596
239	0x3e071579	0.13191785
240	0x3d3eceb4	0.046583846
241	0x3c7cc342	0.015427412
242	0x3e607142	0.21918204
243	0xbe9e8a60	-0.30964947
244	0xbeb8fe39	-0.36131456
245	0x3d3e677b	0.046485405
246	0xbc62333e	-0.013806162
247	0x3e9f3d2c	0.31101358
248	0x3dcf6d24	0.10128239
249	0x3e35fa61	0.17771293
250	0x3e7b3c81	0.24534799
251	0x3d89eb6f	0.067343585
252	0xbd40e014	-0.047088698
253	0x3c747e58	0.014922701
254	0xbe1f4546	-0.1555377
255	0xbd934fed	-0.07192979

fc1.bias f4 [256]
0	0x3d4febe1	0.05076206
1	0x3b950818	0.004548084
2	0x3b614fd5	0.003437986
3	0x3c3b5c40	0.011435568
4	0x3d8d3aa9	0.06895954
5	0x3cfd5c88	0.030927911
6	0x3d6ba588	0.05753091
7	0x3d39b41f	0.045337792
8	0x3d59f11d	0.05320846
9	0x3b9d3515	0.0047975876
10	0xbbc1d520	-0.005915299
11	0xbb9e6770	-0.004834108
12	0x3d78d591	0.060750548
13	0xbb50e896	-0.0031876913
14	0xbb2fc0dd	-0.0026817836
15	0x3d500e13	0.050794672
16	0xbd2868c9	-0.041115556
17	0x3c2fa320	0.010720044
18	0x3d949fe4	0.07257059
19	0x3d24bcc5	0.040219087
20	0x3d7d99b2	0.061914153
21	0x3d488f87	0.048965003
22	0x3d91f96b	0.07127651
23	0xbd198f33	-0.03749008
24	0x3cc9e8b2	0.02464709
25	0x3d8d2359	0.06891508
26	0x3da22aea	0.079183415
27	0x3b59cdc6	0.0033234223
28	0xbcb7f69f	-0.022456465
29	0xbcb2d2f5	-0.021829108
30	0xbd297b6e	-0.041377477
31	0xbd2c78c6	-0.042107366
32	0xbba35d73	-0.0049855052
33	0x3d78d574	0.06075044
34	0xbd007cbb	-0.031368952
35	0x3c0476de	0.008084981
36	0x3bac3afc	0.005256055
37	0xbb916e24	-0.0044381786
38	0x3ba2c1e1	0.00496696
39	0x3db39a6b	0.08769687
40	0x3d88abe7	0.06673413
41	0xbc3db5c6	-0.011578983
42	0x3d98a948	0.07454163
43	0xbd35a2d0	-0.044344723
44	0xbca74dcd	-0.02042284
45	0x3d522b32	0.051310726
46	0x3b94532e	0.0045265174
47	0x3d816680	0.063183784
48	0xbb9906d4	-0.0046700034
49	0xbcc4f737	-0.024043662
50	0x3d0b18eb	0.03395931
51	0x3ad43804	0.001619101
52	0x3d4e2c61	0.05033529
53	0x3c496ea4	0.012294445
54	0x3d230b44	0.039805666
55	0x3d8e524c	0.06949291
56	0x3d8345d4	0.06409803
57	0xbbc6862e	-0.006058476
58	0xbbf13c97	-0.007361959
59	0x3cb9df94	0.022689618
60	0x3cd74526	0.02627809
61	0xbca78192	-0.020447526
62	0xbc1c4612	-0.00953819
63	0xbc462ba0	-0.012095362
64	0x3c0eba05	0.008711343
65	0x3d103fd8	0.035217136
66	0xbd05b494	-0.032642916
67	0xbc91d750	-0.017802864
68	0xbd2369f8	-0.03989598
69	0x3d406604	0.04697229
70	0x3d8b601b	0.0680544
71	0xbc5c37b6	-0.013441017
72	0x3d126dfc	0.03574942
73	0xbd142136	-0.036164485
74	0xbcb09d11	-0.02155927
75	0xbd14caa6	-0.036326073
76	0xbd184652	-0.037176438
77	0x3cb4a3bc	0.02205073
78	0x3d15d1fc	0.03657721
79	0x3d0effe9	0.034912024
80	0xbc80634f	-0.015672354
81	0xbb39f13f	-0.0028372554
82	0x3d0976ce	0.033560567
83	0x3da8e608	0.08247
84	0xbb5ba6f8	-0.003351627
85	0x3d646aef	0.055766042
86	0xbc512ff1	-0.012767778
87	0x3d2b4994	0.041818216
88	0x3d6d9eb3	0.058012675
89	0x3d1ee2d3	0.038790535
90	0xbc86a2f7	-0.01643513
91	0x3d1e96de	0.038718097
92	0xbcac84b2	-0.021059368
93	0x3c01f9d6	0.007933101
94	0xbadf7b99	-0.0017050385
95	0x3d4a1599	0.049337003
96	0x3cd038f0	0.025417775
97	0xbbb0f356	-0.0054001017
98	0x3cb62f1b	0.022239259
99	0x3d67139d	0.05641519
100	0xbcf65988	-0.030071989
101	0x3d1cdccc	0.038296506
102	0x3d1e1405	0.03859331
103	0xbd076bdd	-0.03306185
104	0x3c881469	0.016611295
105	0x3d57875e	0.05261933
106	0x3d371c18	0.044704527
107	0x3d691b83	0.056911003
108	0x3c059c40	0.008154929
109	0x3c912982	0.017719988
110	0xbc4d0c20	-0.012515098
111	0x3d8715e7	0.065959744
112	0xbc0816a4	-0.008306179
113	0x3da69c70	0.08135307
114	0xbd27347a	-0.04082153
115	0x3b831158	0.0039998703
116	0x3d414de3	0.04719342
117	0xbc4aa418	-0.012368225
118	0x3d915d84	0.07097915
119	0xbcb1d842	-0.021709565
120	0x3cdebe56	0.027190369
121	0xbcadf898	-0.021236703
122	0xbcbb0b71	-0.022832604
123	0x3d5cb4d6	0.053883396
124	0xbc935a80	-0.01798749
125	0x3d174abb	0.036936503
126	0xbb86edd8	-0.0041177087
127	0xbc646adc	-0.013941493
128	0x3d6b1ed4	0.057402447
129	0x3b2f2030	0.0026722066
130	0xbcc0fd4c	-0.023558281
131	0x3c8be58c	0.01707723
132	0xbd07e5cb	-0.033178132
133	0x3d879a8c	0.06621274
134	0xbc9d55d5	-0.019205967
135	0x3d8586d7	0.06519859
136	0x3d199bb7	0.037502017
137	0x3b0c17ba	0.0021376447
138	0x3ca62821	0.020282807
139	0xbc6d2a6e	-0.014475448
140	0x3d7bc3f3	0.06146617
141	0x3a22b141	0.00062062225
142	0xbd146567	-0.036229517
143	0x3d835f55	0.064146675
144	0x3d29c85e	0.04145085
145	0x3d1c4c7d	0.038158882
146	0x3d822b94	0.06355968
147	0xbcb90249	-0.022584097
148	0x3b9fa24e	0.004871643
149	0xbcd5462d	-0.026034439
150	0x3c74bd40	0.014937699
151	0xbc45644c	-0.012047838
152	0x3b405c71	0.0029351974
153	0x3da45f53	0.08025994
154	0x3c804e1e	0.01566225
155	0x3d05220d	0.032503176
156	0xbc98aef5	-0.018638114
157	0x3d198477	0.037479844
158	0x3d84f7be	0.064925656
159	0xbbda4a59	-0.006661695
160	0x3d1fc213	0.039003443
161	0xbc386d82	-0.011256577
162	0x3c0ae994	0.008478541
163	0x3d8498f2	0.064744845
164	0x3d5fee67	0.054670718
165	0xbcf25dcf	-0.029585747
166	0xbc5bd3ae	-0.013417168
167	0x3d90d64f	0.07072126
168	0xbc50a82d	-0.012735409
169	0x3c0c3cbf	0.008559405
170	0x3be7a9a7	0.0070697847
171	0x3d8afe90	0.06786835
172	0x3da395a2	0.079875246
173	0xbbf6bfac	-0.0075301733
174	0x3c5f4dc0	0.013629377
175	0xbc425bba	-0.01186269
176	0x3bcd674c	0.0062684175
177	0x3b16ae5e	0.0022992115
178	0x3d1cf5b8	0.038320273
179	0x3b0ff62e	0.0021966803
180	0xbc7fe059	-0.0156174535
181	0x3ca33f4f	0.019927649
182	0xbd0a39f2	-0.033746667
183	0x3d070ae0	0.032969356
184	0x3b0a7e49	0.00211324
185	0x3c5d1293	0.013493198
186	0x3c30c7bd	0.010789809
187	0xbcc18f96	-0.023628037
188	0xbcc02864	-0.02345676
189	0xbc96909b	-0.0183795
190	0x3cb3bb2c	0.021939836
191	0xbc5013d4	-0.01270004
192	0x3d8a8b94	0.06764904
193	0xbc19a80d	-0.009378445
194	0xbd048b1c	-0.032359228
195	0x3ce70279	0.028199421
196	0x3c7b8b07	0.015352971
197	0xbd183ba8	-0.037166268
198	0xbb6e5b91	-0.0036370496
199	0x3c0a941a	0.008458162
200	0x3ce2b570	0.027674407
201	0x3c841e7a	0.016127814
202	0xbd2ab538	-0.04167673
203	0x3ce1d7da	0.027568746
204	0x3cff1f7a	0.031142939
205	0x3d402660	0.046911597
206	0x3ab5176d	0.0013816186
207	0x3a40e14c	0.00073577906
208	0x3c528228	0.0128484145
209	0x3db9fd9b	0.090815745
210	0xbcf79b7e	-0.030225512
211	0xbd1f121f	-0.03883564
212	0x3ba31d19	0.004977834
213	0x3b46099e	0.0030218135
214	0x3ba0b7c0	0.004904717
215	0x3d7809b4	0.06055613
216	0x3d5c03b7	0.05371448
217	0xbc85edaa	-0.016348679
218	0x3c8368d7	0.016041202
219	0x3d1a76d7	0.03771099
220	0x3d8e33ba	0.0694346
221	0xbb959c2c	-0.0045657363
222	0x3c5b9a1b	0.013403441
223	0x3d99a09f	0.07501339
224	0x3d7b53b6	0.06135913
225	0xbcb7a09c	-0.022415452
226	0x3d983cb2	0.07433452
227	0xbd397bfa	-0.04528425
228	0x3cc00a18	0.023442313
229	0x3c113c16	0.008864423
230	0x3d93ea79	0.072224565
231	0x3d411a14	0.04714401
232	0xbd1d8caf	-0.038464244
233	0xbc638fbe	-0.013889251
234	0xbbefba20	-0.007315889
235	0xbd2de037	-0.042450156
236	0xbcf6ac86	-0.030111562
237	0xbd00430f	-0.031313952
238	0x3c29c01c	0.010360744
239	0xbb60c65b	-0.0034297917
240	0x3da0f764	0.07859686
241	0xbcf790b0	-0.03022036
242	0x3c9cf55c	0.019159965
243	0xbd24daf4	-0.040247872
244	0x3d576cd6	0.05259403
245	0x3d9d5d47	0.07683807
246	0xbd057eb7	-0.032591548
247	0x3cd8a0f1	0.02644393
248	0xbb02f442	-0.0019982015
249	0x3d1c5dbc	0.03817533
250	0x3cc734df	0.024317203
251	0xbcf6b622	-0.030116145
252	0x3d2e515c	0.04255806
253	0xbb7c503d	-0.0038499974
254	0x3cb7ee75	0.022452572
255	0x3d1501e9	0.036378775

fc2.weight f4 [6, 256]
0	0x3daefcd8	0.0854432
1	0xbe056541	-0.13026907
2	0x3dcd439c	0.10022661
3	0xbe36bb6c	-0.17844933
4	0x3ced2cf6	0.028952103
5	0x3d586a16	0.052835546
6	0xbd343c1a	-0.04400263
7	0x3d26f891	0.040764395
8	0x3e08aa50	0.13346219
9	0xbc2e164a	-0.010625431
10	0x3a6d74b2	0.00090582215
11	0x3c94ddb4	0.018172123
12	0xbd5ed5dd	-0.054403175
13	0xbe103236	-0.14081654
14	0xbb08d37e	-0.0020878012
15	0xbe0216e2	-0.12704042
16	0x3c0682a2	0.008209856
17	0xbc91100c	-0.017707847
18	0x3da96614	0.08271423
19	0xbe71a75d	-0.23599
20	0xbdb30b30	-0.08742368
21	0x3c42a88f	0.011881008
22	0x3db090c2	0.0862136
23	0xbcc2fd12	-0.023802314
24	0xbe4dab66	-0.20084915
25	0xbe0c759e	-0.13716742
26	0x3d734a2e	0.059396915
27	0x3d2bd48f	0.04195076
28	0xbc4e365b	-0.012586202
29	0x3d13111a	0.03590498
30	0x3c53f193	0.012936014
31	0xbd83160f	-0.06400692
32	0x3e47ad27	0.19499646
33	0x3d3bb396	0.045825563
34	0xbc119fb0	-0.00888817
35	0xbd68be1c	-0.056821927
36	0xbafcbdaa	-0.0019282599
37	0x3d3b0bf0	0.04566568
38	0xbcfa7bd5	-0.030576626
39	0x3daf75c6	0.085673854
40	0xbe78944e	-0.24275324
41	0x3d426ba7	0.047465947
42	0xbe1d95c4	-0.15389162
43	0xbd2e146c	-0.042499945
44	0x3d62652c	0.055272266
45	0x3d93a169	0.07208521
46	0xbe87f063	-0.26550588
47	0x3d3232a2	0.04350532
48	0xbcba1ffc	-0.02272033
49	0xbc124414	-0.008927364
50	0xbe9b79c8	-0.3036635
51	0x3d46b022	0.048507817
52	0xbea4f792	-0.3222013
53	0xbe921cbf	-0.28537557
54	0xbe04da84	-0.12973982
55	0x3d82fd2e	0.063959464
56	0xbdecf482	-0.11570074
57	0x3d9ad074	0.075592905
58	0x3d32456d	0.04352324
59	0x3cdee500	0.027208805
60	0xbd8b4f6b	-0.06802257
61	0xbd409a38	-0.047022074
62	0x3d034ac6	0.03205373
63	0x3dcddacd	0.100514986
64	0x3dd728d3	0.105058335
65	0x3e037a60	0.12839651
66	0xbe13f0fd	-0.14447398
67	0x3cbffd7c	0.0234363
68	0x3cd5bc3e	0.026090737
69	0xbe79c695	-0.2439216
70	0xbc3ffb03	-0.011717561
71	0xbe5f4ca1	-0.21806575
72	0xbe4428e1	-0.19156219
73	0x3d2534e3	0.04033364
74	0xbd716481	-0.05893374
75	0xbcf83e65	-0.03030319
76	0x3cc6407c	0.02420067
77	0x3d0cbcc8	0.034359723
78	0x3dba381f	0.090927355
79	0x3d235498	0.039875597
80	0xbd89ab8d	-0.06722174
81	0x3e268c09	0.16264357
82	0x3d0c8f15	0.03431614
83	0x3d3b6c5d	0.04575764
84	0x3de5383c	0.111923665
85	0x3ceac7fe	0.028659817
86	0x3ca216da	0.019786287
87	0x3df9d06a	0.12197955
88	0x3de9dcda	0.11419077
89	0xbe77035b	-0.24122374
90	0xbe3f3653	-0.18673067
91	0x3d8494cd	0.06473694
92	0xbb65c3bb	-0.0035059291
93	0xbcf22353	-0.02955786
94	0xbe78cfcf	-0.24298023
95	0x3dc82b3e	0.09773873
96	0x3a6407e4	0.00086986856
97	0xbe349fef	-0.17639135
98	0xbd43cfa7	-0.047805455
99	0xbc778c45	-0.015109126
100	0x3c1977ca	0.009366939
101	0xbdb63063	-0.08895948
102	0x3dcd6b07	0.100301795
103	0xbd8947a1	-0.06703115
104	0x3e01d316	0.12678179
105	0x3da7d52d	0.08194957
106	0x3e2bc3b8	0.1677388
107	0x3da8a6af	0.08234917
108	0x3db7fa43	0.089832805
109	0xbe2faeb1	-0.17156483
110	0xbe25b878	-0.1618365
111	0xbd9a455a	-0.07532759
112	0x3df50d43	0.1196542
113	0xbd28aaf1	-0.041178647
114	0xbb779c8d	-0.003778252
115	0x3d9e01a3	0.07715156
116	0x3d9dc5e3	0.077037595
117	0xbd1063d3	-0.03525145
118	0x3e02f17a	0.12787428
119	0xbc902ad2	-0.017598543
120	0xbd21d924	-0.039513722
121	0x3cd13ee5	0.025542686
122	0xbdd29f83	-0.10284331
123	0x3db6b6c3	0.08921578
124	0xbd3f0002	-0.046630867
125	0xbea0d04f	-0.31408927
126	0xbe9299c7	-0.28632948
127	0x3d506682	0.05087901
128	0x3d86dbbc	0.0658488
129	0x3e026122	0.12732366
130	0xbe7c7281	-0.24653055
131	0x3d678588	0.05652383
132	0xbbb0970c	-0.0053891
133	0x3e2244ef	0.15846609
134	0xbe4fb50d	-0.20283909
135	0xbe616fec	-0.22015351
136	0xbe1e6545	-0.15468319
137	0xbd311ff0	-0.04324335
138	0xbcb6bc1e	-0.022306498
139	0x3cfab818	0.03060536
140	0x3d5e98a5	0.054344792
141	0x3d24aa6a	0.040201582
142	0xbd7e50b9	-0.062088702
143	0x3c8c8e03	0.01715756
144	0x3d9a1de6	0.07525234
145	0x3dc93049	0.09823663
146	0xbd5d803d	-0.054077376
147	0xbd6dbf68	-0.058043867
148	0x3d0cc4c4	0.034367338
149	0x3ddc3679	0.10752577
150	0x3c7c9642	0.015416684
151	0x3cba7ae8	0.022763684
152	0x3d8b0168	0.067873776
153	0x3d8421bd	0.064517476
154	0xbd536bd6	-0.051616512
155	0x3de3198c	0.11088857
156	0x3af952d4	0.0019021877
157	0xbe37bc16	-0.17942843
158	0x3e221c87	0.15831195
159	0x3c9e7dae	0.019347038
160	0xbe01c2d3	-0.12671976
161	0x3d82b685	0.06382469
162	0xbc44ff45	-0.012023752
163	0x3db3936b	0.08768352
164	0xbda7477f	-0.08167934
165	0xbc82b0e8	-0.015953496
166	0xb91e069d	-0.00015070518
167	0xbd3f3f0f	-0.046690997
168	0x3d803497	0.06260031
169	0x3e014a0f	0.12625907
170	0x3d5ce87a	0.053932644
171	0xbd1e12ce	-0.038592152
172	0x3d04b662	0.032400496
173	0xbe45a0d8	-0.19299638
174	0xbbac4578	-0.0052573048
175	0x3dca6b70	0.09883773
176	0x3d27827b	0.04089592
177	0xbe55399a	-0.20822755
178	0x3da51567	0.08060723
179	0xbc4faa40	-0.012674868
180	0x3d1d249f	0.038365003
181	0x3e055a7f	0.13022803
182	0x3cb5f526	0.022211622
183	0xbe26ed74	-0.16301519
184	0x3dd7b130	0.10531843
185	0x3d89d011	0.06729139
186	0x3df00b0e	0.117208585
187	0xbd016fb6	-0.031600676
188	0x3d4af716	0.049552046
189	0x3cdb5bf6	0.026777249
190	0xbe83fba9	-0.2577794
191	0x3d1c68b4	0.03818579
192	0x3d1adbb8	0.037807196
193	0xbe82e17e	-0.25562662
194	0xbd5c9202	-0.05385018
195	0x3d776fae	0.06040924
196	0x3e13dabc	0.1443891
197	0xbc99b5bc	-0.018763416
198	0xbc87ffd3	-0.016601479
199	0x3c06af9f	0.008220582
200	0xbca7a957	-0.02046649
201	0xbdeba20d	-0.11505518
202	0x3ca656e9	0.020305114
203	0xbe6929a3	-0.2276979
204	0x3e35e022	0.17761281
205	0xbcfb1e4f	-0.0306541
206	0xbe293151	-0.16522719
207	0x3d408d70	0.047009885
208	0x3d06ada5	0.032880444
209	0x3e197023	0.14984183
210	0x3b913594	0.004431436
211	0x3bbefcf0	0.0058284923
212	0x3af4d952	0.0018680489
213	0xbdb04a4d	-0.08607922
214	0xbd9220da	-0.07135172
215	0x3e14bba4	0.14524704
216	0x3ceb8e69	0.02875443
217	0xbd42ff5e	-0.04760682
218	0xbe3d6ad4	-0.18497783
219	0x3dc54c0a	0.09633644
220	0xbd205bd1	-0.039150063
221	0xbd3d568e	-0.046225123
222	0xbe0abd29	-0.13548721
223	0x3dcf12d8	0.10111016
224	0x3d461ed3	0.04836924
225	0xbc58e3a8	-0.013237871
226	0x3dadd718	0.084882915
227	0x3d5a107c	0.053238377
228	0x3e0ed34e	0.13947794
229	0xbc942463	-0.018083757
230	0xbe3320e2	-0.17493013
231	0xbdc91803	-0.09819033
232	0x3c032c7e	0.008006213
233	0xbb4c9b80	-0.0031220615
234	0xbd8ed9dd	-0.06975148
235	0xbd15fcbf	-0.03661799
236	0x3c2e787a	0.010648841
237	0xbc8a52ec	-0.016885243
238	0x3e42a81b	0.1900944
239	0xbe1b21ef	-0.15149663
240	0x3be7836d	0.0070652277
241	0xbcb78ed0	-0.022406965
242	0xbdb3c7fa	-0.08778377
243	0x3c392a52	0.011301594
244	0x3d740971	0.059579317
245	0xbdf86fea	-0.12130721
246	0xbd819238	-0.06326717
247	0x3d3621ff	0.044466015
248	0x3e34542a	0.17610231
249	0xbe780161	-0.24219276
250	0xbd8187df	-0.063247435
251	0xbc4883f8	-0.012238495
252	0xbddc465f	-0.1075561
253	0xbde60480	-0.11231327
254	0xbe23e1db	-0.16004126
255	0x3d42cbd9	0.047557686

fc2.bias f4 [6]
0	0x3a9a550e	0.0011774616
1	0x3a4ba244	0.0007768015
2	0x3d6284c1	0.055302385
3	0xbd14f6e5	-0.03636827
4	0x3d288314	0.04114063
5	0xbcfde7d2	-0.03099433
