TL-ERC/generative_weights/best_audio_model.pth (torch, 978203 bytes, 12 tensors)

rnn.weight_ih_l0 f4 [384, 100]
0.02741089 -0.027978279 -0.038709626 0.17177835 0.038458318 -0.061694127 -0.03281157 0.00972505
-0.1210409 -0.05896315 0.09063007 -0.018686391 -0.004112737 -0.10931177 0.06980049 0.06792315
0.094459035 0.06996299 0.021298805 -0.075574756 -0.053665455 -0.029973986 0.060407028 -0.046740416
-0.07201949 -0.08789139 -0.017370744 -0.024654826 0.023953216 -0.12940198 -0.010085197 -0.0016470006
0.015779799 0.045012955 0.1091079 -0.05051521 -0.019954095 -0.16575037 -0.20844072 -0.04543494
-0.06891102 -0.004863094 -0.049994294 0.016229225 -0.06262651 -0.09892828 0.040123984 0.07987036
0.004063795 -0.06671215 -0.11177619 0.063198544 -0.04252579 -0.03882563 -0.29820773 0.036684282
-0.034611154 -0.03358128 -0.08069912 -0.043570634 -0.015954167 0.06586414 -0.3109892 -0.1384109
-0.011159165 -0.06695645 0.03529732 -0.032874096 -0.111008696 0.16788836 0.09768509 -0.2993384
-0.059014473 -0.30211183 0.06507344 -0.080706194 -0.013104757 -0.01841522 -0.011919949 -0.12484089
-0.02727266 -0.04105673 0.0023531516 -0.035497192 -0.06994683 -0.058393173 0.025374098 -0.07865011
0.0788809 0.03498903 -0.11357877 0.03529639 0.018549139 0.01438269 0.011607184 0.056533977
0.047219098 -0.049909126 0.09366129 0.047379352 0.15915903 -0.086268246 0.0084598735 0.094792455
0.0045319437 0.06019286 0.060303528 0.08251226 0.114297956 0.005830993 0.12891075 0.0020367212
0.0042385315 0.0343616 0.08814339 0.05450103 0.06815749 0.09145266 0.15621868 0.08670883
-0.07785259 0.10812252 0.00065620727 -0.06598737 0.0871095 -0.08018844 0.08990659 0.06188089
0.1775994 0.04269792 -0.0037562642 0.01691427 -0.0040309136 0.010922918 -0.07459422 0.028734565
-0.015539701 -0.027628893 -0.31120187 -0.043493304 0.056437675 0.11936178 0.14444454 0.026692862
0.0019437644 0.09584933 0.07969406 0.08734219 0.09936894 0.0655517 -0.0697458 0.02065689
-0.014878117 0.04065592 0.047767803 0.22133675 0.09689247 -0.02876658 0.038758907 -0.011728496
-0.039900437 -0.030935338 0.028236797 -0.067692526 0.05909214 -0.029832125 0.13374396 -0.06388564
0.02222416 -0.15659457 0.09603382 0.09703247 0.14418772 0.015071925 0.025773965 -0.040270206
0.025869634 0.014260046 -0.10244681 0.12331356 0.009899389 0.07344701 0.13173464 -0.07837906
0.10193217 0.080560505 0.074627526 0.046256945 0.14052506 -0.045775082 -0.0111178905 0.060592473
0.02579556 0.11552588 -0.017808266 0.08154447 0.14393803 -0.086425535 0.031224377 0.03733556
0.07352177 0.04198868 -0.0033958852 -0.16993968 0.0103165945 0.1569121 0.025984794 0.1810695
-0.04579902 -0.10456506 0.08308261 -0.11629265 -0.014820401 -0.10833513 0.021188451 -0.084560394
0.041449208 0.027656749 -0.26737878 -0.1154069 0.16734384 0.18692291 0.056372125 -0.037323292
0.063533686 -0.12496169 0.074736536 0.10819361 0.016024897 -0.024391713 0.03682715 -0.14570883
-0.08005077 -0.10719659 0.08475126 -0.03616161 -0.14417316 0.06937561 0.03013254 -0.09240927
-0.018284157 0.104099065 0.006053445 -0.08362691 0.24312754 -0.01173591 0.12927495 0.14037277
0.18465005 0.08926554 -0.09327078 0.09435675 -0.020639766 0.047791004 0.19672816 0.14166717
00000000: ce8c e03c b432 e5bc fc8d 1ebd aae6 2f3e
00000010: 7886 1d3d fbb2 7cbd 6d65 06bd d155 1f3c
00000020: 4be4 f7bd 5883 71bd 429c b93d 3414 99bc
00000030: 23c4 86bb d9de dfbd 8ff3 8e3d 4b1b 8b3d
00000040: bd73 c13d c248 8f3d d57a ae3c f0c6 9abd
00000050: 4fd0 5bbd 018c f5bc 5c6d 773d e172 3fbd
00000060: f47e 93bd 6700 b4bd 174d 8ebc ebf8 c9bc
00000070: 8939 c43c f481 04be 623c 25bc 2be0 d7ba
00000080: a344 813c 815f 383d f673 df3d 09e9 4ebd
00000090: c576 a3bc 77ba 29be 7c71 55be fd19 3abd
000000a0: 3921 8dbd 975a 9fbb d1c6 4cbd 27f3 843c
000000b0: 5442 80bd e99a cabd 0c59 243d 1293 a33d
000000c0: 9529 853b 61a0 88bd eaea e4bd 3d6e 813d
000000d0: 862f 2ebd a007 1fbd afae 98be 4242 163d
000000e0: 6dc4 0dbd 868c 09bd 9545 a5bd 1f77 32bd
000000f0: 50b2 82bc c7e3 863d fa39 9fbe 96bb 0dbe
00000100: eed4 36bc 7720 89bd ec93 103d fda6 06bd
00000110: 8758 e3bd edea 2b3e 1f0f c83d e242 99be
00000120: 29b9 71bd 67ae 9abe 3945 853d 4a49 a5bd
00000130: 56b5 56bc 84db 96bc e44b 43bc 95ac ffbd
00000140: ea6a dfbc 1a2b 28bd 5537 1a3b 8165 11bd
00000150: 4940 8fbd ae2d 6fbd 57dd cf3c 4f13 a1bd
00000160: 4f8c a13d a850 0f3d fc9b e8bd f392 103d
00000170: 5df4 973c 60a5 6b3c 0f2c 3e3c 2c90 673d
00000180: d068 413d 836d 4cbd 7ed1 bf3d da10 423d
00000190: 96fa 223e 68ad b0bd 489b 0a3c 8c22 c23d
000001a0: b380 943b ca8c 763d d500 773d 30fc a83d
000001b0: 0c15 ea3d ea11 bf3b 2e01 043e 837a 053b
000001c0: 61e3 8a3b c0be 0c3d 8684 b43d 793c 5f3d
000001d0: 2796 8b3d 884b bb3d caf7 1f3e 6694 b13d
000001e0: 2e71 9fbd 576f dd3d 5305 2c3a 6324 87bd
000001f0: 7766 b23d d639 a4bd f220 b83d d176 7d3d
00000200: 9edc 353e 04e4 2e3d a82b 76bb cc8f 8a3c
00000210: c115 84bb 0af6 323c dbc4 98bd c064 eb3c
00000220: 3b9a 7ebc fd55 e2bc da55 9fbe 0926 32bd
00000230: 312b 673d f373 f43d 45e9 133e fdaa da3c
00000240: e9c5 fe3a a74c c43d a436 a33d 76e0 b23d
00000250: f181 cb3d f83f 863d e3d6 8ebd a338 a93c
00000260: 58c3 73bc d286 263d 2ca8 433d 1aa6 623e
00000270: 8f6f c63d e4a7 ebbc a9c1 1e3d e128 40bc
00000280: a46e 23bd 1b6c fdbc db50 e73c 61a2 8abd
00000290: 9a0a 723d 8062 f4bc 2df4 083e 79d6 82bd
000002a0: 710f b63c 545a 20be 61ad c43d f6b8 c63d
000002b0: f2a5 133e 3cf0 763c ec23 d33c 5ff2 24bd
000002c0: 8eec d33c f8a2 693c a2cf d1bd d28b fc3d
000002d0: 0c31 223c 636b 963d 72e5 063e 3385 a0bd
000002e0: d0c1 d03d e8fc a43d 51d6 983d ec77 3d3d
000002f0: cde5 0f3e a77e 3bbd d027 36bc d02f 783d
00000300: 3651 d33c d598 ec3d a4e2 91bc c900 a73d
00000310: 7e64 133e dfff b0bd 44ca ff3c 2ced 183d
00000320: 9592 963d 52fc 2b3d 808d 5ebb ab04 2ebe
00000330: ef06 293c 91ad 203e 10de d43c 486a 393e
00000340: c197 3bbd 3526 d6bd 3727 aa3d d72a eebd
00000350: 44d1 72bc cfde ddbd 6793 ad3c 002e adbd
00000360: a5c6 293d 6890 e23c dfe5 88be 745a ecbd
00000370: 2f5c 2b3e b868 3f3e 75e6 663d 4fe0 18bd
00000380: f31d 823d eaeb ffbd 780f 993d 9d94 dd3d
00000390: a546 833c 21d1 c7bc 11d8 163d b234 15be
000003a0: a8f1 a3bd e389 dbbd 1292 ad3d 321e 14bd
000003b0: 21a2 13be cd14 8e3d 84d8 f63c 1241 bdbd
000003c0: a8c8 95bc e431 d53d fa5b c63b 9644 abbd
000003d0: 6df6 783e f947 40bc a760 043e e1bd 0f3e
000003e0: e714 3d3e dad0 b63d c004 bfbd 1d3e c13d
000003f0: ba14 a9bc 80c0 433d 1b73 493e 3311 113e

rnn.weight_hh_l0 f4 [384, 128]
-0.06400784 -0.018420894 0.004684727 0.021535669 -0.102875456 0.045475215 0.024784276 0.056064434
-0.16436075 -0.0037336035 -0.11511683 -0.024268493 -0.12378535 -0.038585402 0.08782823 0.046941675
0.057883035 0.0688333 0.09688545 -0.08445418 0.049413595 0.07030569 0.1495875 -0.037936147
-0.035576686 0.1025365 -0.09830762 -0.02910044 0.036365684 -0.010139134 0.13570423 0.049211543
-0.12430897 -0.120211706 0.13898228 0.019818012 -0.025817927 0.053741418 0.09760733 0.004582092
0.05272277 -0.124569215 0.12263632 -0.057689656 0.026389623 0.13064636 -0.041611917 -0.11405733
-0.11895815 0.023442188 -0.13591991 -0.019864298 -0.06865642 0.01230156 -0.0046579535 -0.0035134258
-0.07315566 -0.2598701 -0.06901276 -0.1113306 0.056209676 0.060488805 -0.090666264 -0.024768498
-0.033990655 -0.0074745757 -0.056940585 -0.018474523 -0.016511174 0.07285448 0.095385164 0.07115843
0.09138712 0.092356406 0.116657265 -0.004761832 0.032080833 -0.016474977 -0.055441473 0.011693472
-0.10869175 -0.03453672 0.00030066667 0.014416209 0.033854406 -0.07778203 -0.046836223 0.012394309
0.024545852 -0.099153735 0.14949423 0.14845748 0.022237843 -0.12135164 0.026537204 -0.0503009
-0.12062404 -0.064567745 -0.051047105 0.08175848 -0.14206055 0.048949525 0.16311443 -0.09310887
0.06076713 -0.1139855 0.05668378 0.10151754 -0.02473938 -0.06335652 0.06870042 -0.004940312
0.09473837 -0.048622675 -0.032540027 -0.11888722 0.04576791 0.11813825 0.059083838 -0.036373854
0.06538414 0.084003195 -0.044623863 -0.0078070937 -0.030969875 0.076885566 0.05205284 0.029786944
0.0077950777 0.007952493 -0.03359805 -0.05900279 0.010500437 0.05054992 0.13611132 0.0715761
0.042312015 0.012739752 0.028262993 0.12021983 -0.10906454 0.010410575 0.12068236 0.09396092
0.040203843 -0.036523 0.17669563 -0.0593788 -0.021353047 0.096015796 -0.0138000045 -0.015588352
0.086652145 0.019520665 0.09685039 0.10909842 -0.056295343 -0.06144275 -0.09245002 -0.11213791
0.044069707 0.048065584 0.0738585 0.055518866 0.08821878 0.0611379 0.055411987 0.08568787
-0.031191528 -0.025233723 0.044312287 -0.15686709 0.023754437 0.007439088 -0.033400416 -0.06466867
-0.029951498 0.15324631 -0.047004387 0.02047686 0.03463986 -0.08234925 -0.049103376 0.03678164
-0.023675427 -0.08333004 -0.044148896 0.03340971 -0.031464357 -0.034531686 -0.019794496 -0.1191857
-0.074194595 -0.042756636 0.026488364 0.115702264 0.048902802 0.039514586 0.018941032 -0.08747146
0.06769812 -0.03411538 0.024338365 -0.124200776 0.09170777 0.071514934 0.035910856 0.044205207
-0.041590337 0.07385973 0.08060213 0.045635674 -0.00747703 -0.040478535 0.020623112 -0.038667712
0.114873715 -0.036823392 0.028356764 0.087781146 0.08761177 -0.013938008 0.0022706026 0.08078885
-0.07429195 -0.07119158 -0.059167817 0.020290038 -0.09773074 0.13433939 0.16148402 0.05049197
0.111395724 0.019934766 0.044802327 0.014937221 -0.0205119 0.01918458 -0.087191984 0.03187362
-0.04283509 -0.07030886 -0.04842139 -0.05663327 -0.010278487 0.07980087 -0.07931604 -0.17150988
-0.00028688376 -0.08323109 -0.0051427875 0.010498384 -0.08840988 -0.103502505 -0.03326323 0.07722898
00000000: 8b16 83bd 6ae7 96bc 5782 993b 926b b03c
00000010: 5eb0 d2bd 3844 3a3d 6508 cb3c d2a3 653d
00000020: 2f4e 28be 79af 74bb 5fc2 ebbd b8ce c6bc
00000030: 2c83 fdbd ba0b 1ebd 49df b33d ea45 403d
00000040: c316 6d3d 79f8 8c3d e16b c63d 50f6 acbd
00000050: e965 4a3d 6efc 8f3d 772d 193e ef62 1bbd
00000060: dcb8 11bd a8fe d13d 8155 c9bd 0c64 eebc
00000070: 2ff4 143d 9c1e 26bc 0df6 0a3e 0b92 493d
00000080: b495 febd 8e31 f6bd 5f51 0e3e 6259 a23c
00000090: 1e80 d3bc f61f 5c3d 5ae6 c73d 6025 963b
000000a0: d5f3 573d 251e ffbd c028 fb3d fd4b 6cbd
000000b0: 0d2f d83c 29c8 053e 4271 2abd e496 e9bd
000000c0: 55a0 f3bd d509 c03c 972e 0bbe 74ba a2bc
000000d0: bd9b 8cbd 7b8c 493c bfa1 98bb 8141 66bb
000000e0: a2d2 95bd b20d 85be 9056 8dbd 4c01 e4bd
000000f0: 1e3c 663d 1cc3 773d 3caf b9bd 4ee7 cabc
00000100: c939 0bbd 49ed f4bb 883a 69bd e257 97bc
00000110: 7142 87bc bb34 953d 4c59 c33d 83bb 913d
00000120: 2c29 bb3d 5b25 bd3d 01ea ee3d 2409 9cbb
00000130: 3167 033d 88f6 86bc 9916 63bd fa95 3f3c
00000140: c899 debd 6076 0dbd cca2 9d39 f731 6c3c
00000150: ebaa 0a3d 2f4c 9fbd 57d7 3fbd 8011 4b3c
00000160: 6214 c93c 1d11 cbbd 0415 193e 3d05 183e
00000170: 232c b63c 3587 f8bd 8d64 d93c 5108 4ebd
00000180: bd09 f7bd 183c 84bd c516 51bd fd70 a73d
00000190: 5278 11be 4c7f 483d 7807 273e ddaf bebd
000001a0: f4e6 783d 3b71 e9bd 402d 683d 6ee8 cf3d
000001b0: 3eaa cabc 10c1 81bd ceb2 8c3d 57e2 a1bb
000001c0: 3106 c23d 9228 47bd b148 05bd 257b f3bd
000001d0: 2277 3b3d 78f2 f13d e501 723d c0fc 14bd
000001e0: 1fe8 853d de09 ac3d 83c7 36bd a6d2 ffbb
000001f0: 89b4 fdbc 2e76 9d3d 5c35 553d c003 f43c
00000200: da6d ff3b 2c4b 023c 1c9e 09bd e9ac 71bd
00000210: 060a 2c3c 6f0d 4f3d c460 0b3e 7e96 923d
00000220: 5d4f 2d3d 65ba 503c cb87 e73c d035 f63d
00000230: 3b5d dfbd 1e91 2a3c 5028 f73d 956e c03d
00000240: c9ac 243d 2499 15bd b3ef 343e 2f37 73bd
00000250: 96ec aebc eea3 c43d 6a19 62bc 4a66 7fbc
00000260: ae76 b13d cde9 9f3c 7f59 c63d fe6e df3d
00000270: f295 66bd 65ab 7bbd 7056 bdbd 90a8 e5bd
00000280: 7082 343d 6be0 443d 2043 973d c067 633d
00000290: 0cac b43d bc6b 7a3d aef7 623d 1f7d af3d
000002a0: 6085 ffbc f4b6 cebc cd80 353d c4a1 20be
000002b0: aa98 c23c 98c3 f33b e0ce 08bd 0271 84bd
000002c0: d85c f5bc 9aec 1c3e ac87 40bd 17bf a73c
000002d0: 87e2 0d3d b9a6 a8bd 9f20 49bd 58a8 163d
000002e0: f8f2 c1bc f1a8 aabd 79d5 34bd 9fd8 083d
000002f0: c5e0 00bd 1971 0dbd 1128 a2bc a217 f4bd
00000300: 56f3 97bd 9521 2fbd 20fe d83c 4ff5 ec3d
00000310: 4e4e 483d 0cda 213d 392a 9b3c 3d24 b3bd
00000320: 50a5 8a3d 92bc 0bbd 4061 c73c fa5c febd
00000330: 49d1 bb3d 6c76 923d 4317 133d 8510 353d
00000340: a15a 2abd c543 973d bb12 a53d 79ec 3a3d
00000350: e001 f5bb d2cc 25bd cdf1 a83c 0962 1ebd
00000360: e942 eb3d 20d4 16bd 724c e83c 9ac6 b33d
00000370: cd6d b33d 3e5c 64bc 64ce 143b a074 a53d
00000380: 6126 98bd e4cc 91bd f459 72bd 4b37 a63c
00000390: 0e27 c8bd 4490 093e 115c 253e abd0 4e3d
000003a0: 7123 e43d 3c4e a33c a582 373d 3fbb 743c
000003b0: 9208 a8bc fb28 9d3c b691 b2bd ea8d 023d
000003c0: d973 2fbd 17fe 8fbd 8255 46bd 4af8 67bd
000003d0: 1967 28bc a36e a33d 7370 a2bd 49a0 2fbe
000003e0: e368 96b9 1075 aabd d484 a8bb 6a01 2c3c
000003f0: 3d10 b5bd 1ff9 d3bd 063f 08bd 3a2a 9e3d

rnn.bias_ih_l0 f4 [384]
-0.005924237 -0.023845686 -0.04741891 -0.0052655376 0.047761507 -0.031056901 -0.12006357 0.030882087
-0.051702943 -0.103838384 -0.021680836 0.117308706 -0.028648106 -0.12147381 -0.06282243 -0.05222164
-0.065424934 -0.025752213 0.07650252 -0.06819374 0.0656918 0.008796143 0.08435217 -0.018192424
0.022767233 -0.03574262 -0.0045152744 0.06718278 -0.13717328 0.026056783 -0.032931693 -0.021776168
-0.108866006 0.0069842143 -0.098767504 -0.060669832 -0.047541827 -0.110606425 -0.034290336 0.005947884
0.022276204 0.039647974 0.0026467154 -0.045434747 -0.11903729 -0.044795267 0.0149978055 -0.106392406
-0.036736615 0.03499728 -0.0057184435 -0.017561514 -0.028719338 -0.0031873398 -0.053032663 0.024464251
0.011316279 -0.029599315 -0.06328974 -0.025531728 -0.08109717 0.049203664 -0.051111605 -0.11462107
-0.016991692 -0.06472913 -0.033547137 -0.079753526 -0.11514615 -0.08679892 0.06285636 0.018928675
-0.08636909 -0.062295027 -0.09484299 0.040060174 -0.024403468 0.03520609 -0.12829769 -0.09031579
-0.039820418 0.09030754 -0.050196752 -0.036998507 -0.0022043088 -0.058889706 -0.008550139 0.045757998
-0.03674414 -0.03470353 -0.035216544 0.029409342 0.054892506 -0.11290031 0.024731152 -0.0791666
0.008154586 0.059794385 -0.042214125 -0.06848131 -0.05223034 -0.019547472 -0.113828495 -0.08645254
0.012031584 0.009483401 -0.07404057 0.0829053 -0.121649615 0.020923216 0.022848876 -0.06799149
-0.07293423 0.11052557 0.00022602832 -0.10522084 0.03371183 0.06382992 -0.10295433 -0.043351535
-0.041372377 0.008653159 -0.003685232 -0.0909342 -0.07372578 -0.056437593 -0.028002623 0.019597635
-0.106071115 0.4373753 0.10126796 -0.0049009616 -0.04573174 -0.2800255 -0.021002859 -0.22586064
-0.068664454 0.090534166 -0.16970107 -0.022688976 -0.054157846 -0.10219219 -0.042934187 0.12889324
0.02034325 -0.19099589 -0.09965663 -0.1105979 0.2279658 0.014599512 -0.00045453597 0.27106094
-0.12232147 0.17815334 0.047183756 -0.03174092 0.39475882 -0.016875286 0.2845073 0.1874038
0.14124897 -0.09160287 0.028992673 0.37327164 -0.31217912 -0.059175882 -0.09970622 -0.0027809776
0.17273594 0.03331197 0.15604156 0.109763935 0.01766769 0.1334785 -0.07619774 -0.017195301
0.12231099 -0.019688478 0.27438176 0.24314539 0.19069168 -0.35438737 -0.31465384 -0.10636962
-0.024161287 0.08764736 0.029425794 0.027690856 -0.03661273 -0.027577886 0.039947994 0.26859185
0.28646296 -0.050573856 0.23753513 0.007899919 -0.10875712 0.25441137 0.080298364 0.0062001985
0.11184749 0.012779821 -0.0798593 0.09938457 0.3200087 0.081349 0.059416898 0.19408478
0.047530346 -0.30816334 -0.08511845 0.06327744 0.025539415 0.20056252 0.18891048 0.14100558
-0.06505641 0.037086133 0.34919804 -0.072764926 0.086140625 0.06444086 0.06809963 -0.06673249
0.17850403 0.0076843794 0.3308505 0.098677315 0.102769166 0.20399645 0.07663743 0.023591654
0.13816479 0.082219325 0.12428235 -0.08515601 -0.069757275 0.031106697 0.094806336 -0.14765736
-0.102861255 -0.06608851 -0.14155507 0.18400665 0.122018166 -0.04351448 -0.06029299 0.16190158
-0.13009211 0.19774263 -0.08366135 0.06667469 0.07844464 -0.055590406 0.1836428 0.021393437
00000000: 1a20 c2bb 0758 c3bc 553a 42bd 888a acbb
00000010: 92a1 433d 0b6b febc e4e3 f5bd 6efc fc3c
00000020: 77c6 53bd 38a9 d4bd 029c b1bc 8c3f f03d
00000030: 6faf eabc 43c7 f8bd 0ca9 80bd 5ce6 55bd
00000040: 82fd 85bd 4ef6 d2bc 5aad 9c3d 29a9 8bbd
00000050: 6c89 863d b31d 103c d5c0 ac3d 4708 95bc
00000060: 5982 ba3c da66 12bd def4 93bb 2097 893d
00000070: 2777 0cbe 0975 d53c 62e3 06bd ef63 b2bc
00000080: 24f5 debd d6db e43b 9e46 cabd ee80 78bd
00000090: 38bb 42bd 9f85 e2bd 0674 0cbd 78e6 c23b
000000a0: 967c b63c ea65 223d 8474 2d3b c919 3abd
000000b0: d3c9 f3bd 3e7b 37bd 5bb9 753c 43e4 d9bd
000000c0: 2279 16bd 4f59 0f3d c861 bbbb 2add 8fbc
000000d0: d144 ebbc b0e2 50bb c738 59bd 4169 c83c
000000e0: ea67 393c 437a f2bc 0d9e 81bd ea27 d1bc
000000f0: 4616 a6bd c889 493d 675a 51bd 74be eabd
00000100: 2932 8bbc b590 84bd b968 09bd d155 a3bd
00000110: bfd1 ebbd a2c3 b1bd d6ba 803d 4f10 9b3c
00000120: 47e2 b0bd 1229 7fbd 0b3d c2bd 2316 243d
00000130: c8e9 c7bc 4334 103d 7860 03be 7cf7 b8bd
00000140: bc1a 23bd 29f3 b83d 1c9b 4dbd bf8b 17bd
00000150: 2a76 10bb 5536 71bd e215 0cbc bd6c 3b3d
00000160: 0681 16bd 4a25 0ebd 393f 10bd dceb f03c
00000170: f7d6 603d 4738 e7bd fc98 ca3c 1922 a2bd
00000180: d09a 053c f5ea 743d b8e8 2cbd ee3f 8cbd
00000190: 7bef 55bd 0522 a0bc ea1e e9bd 070e b1bd
000001a0: 1f20 453c 4460 1b3c 95a2 97bd 41ca a93d
000001b0: 6f23 f9bd 2a67 ab3c 912d bb3c 1f3f 8bbd
000001c0: 8b5e 95bd 3b5b e23d 0402 6d39 067e d7bd
000001d0: 6a15 0a3d 43b9 823d b8d9 d2bd 6191 31bd
000001e0: 1576 29bd fbc5 0d3c ef83 71bb b63b babd
000001f0: 8bfd 96bd 1b2b 67bd c265 e5bc 388b a03c
00000200: d03b d9bd a8ef df3e 9465 cf3d 3f98 a0bb
00000210: 3451 3bbd 815f 8fbe 300e acbc 0348 67be
00000220: f39f 8cbd fa69 b93d 1ec6 2dbe 3bde b9bc
00000230: 9ed4 5dbd 244a d1bd c2db 2fbd 97fc 033e
00000240: e3a6 a63c 6d94 43be c618 ccbd 2781 e2bd
00000250: de6f 693e cb32 6f3c c94e eeb9 80c8 8a3e
00000260: ae83 fabd d46d 363e c143 413d c402 02bd
00000270: d41d ca3e 0a3e 8abc f1aa 913e c8e6 3f3e
00000280: 92a3 103e 499a bbbd 0b82 ed3c 761d bf3e
00000290: f1d5 9fbe 6962 72bd c632 ccbd 1041 36bb
000002a0: b1e1 303e 2272 083d 5cc9 1f3e eacb e03d
000002b0: d5bb 903c 97ae 083e 900d 9cbd 29dd 8cbc
000002c0: 2f7e fa3d bb49 a1bc c47b 8c3e 1bfb 783e
000002d0: ae44 433e 4372 b5be 4f1a a1be 51d8 d9bd
000002e0: e4ed c5bc 7680 b33d 5d0e f13c efd7 e23c
000002f0: 3bf7 15bd 05eb e1bc 82a0 233d df84 893e
00000300: 46ab 923e 8826 4fbd 693c 733e a96e 013c
00000310: 0ebc debd 3542 823e 7873 a43d 092b cb3b
00000320: 4c10 e53d 7462 513c 468d a3bd 238a cb3d
00000330: 2ed8 a33e 4e9a a63d 225f 733d 29be 463e
00000340: 2eaf 423d 96c7 9dbe 9552 aebd 9a97 813d
00000350: 0938 d13c 4360 4d3e c071 413e c463 103e
00000360: 4c3c 85bd a1e7 173d 16ca b23e c705 95bd
00000370: 7f6a b03d 92f9 833d d277 8b3d 0bab 88bd
00000380: c3c9 363e 3fcd fb3b 3d65 a93e 5517 ca3d
00000390: a478 d23d 72e4 503e 16f4 9c3d 4943 c13c
000003a0: 127b 0d3e 9b62 a83d bf87 fe3d 4666 aebd
000003b0: e7dc 8ebd 79d3 fe3c d329 c23d 7e33 17be
000003c0: eca8 d2bd 6a59 87bd d0f3 10be 3d6c 3c3e
000003d0: a9e4 f93d 3d3c 32bd c8f5 76bd 87c9 253e
000003e0: de36 05be 0b7d 4a3e a456 abbd bd8c 883d
000003f0: 95a7 a03d c4b2 63bd dc0c 3c3e 4a41 af3c

rnn.bias_hh_l0 f4 [384]
-0.08110452 0.045585614 -0.016161937 -0.032077175 -0.05027039 0.06396389 -0.037277143 0.010965394
-0.05019548 -0.17072229 0.13081318 -0.037907686 -0.0880801 -0.04141908 0.04714904 -0.106840335
-0.014453863 -0.040360957 -0.07475307 0.020388795 -0.033453546 -0.08059125 0.013988802 0.030578744
0.04485595 0.037552916 -0.06819979 0.06623617 -0.101186015 0.033863477 -0.055595458 -0.05440607
-0.05862187 -0.10889798 0.016312782 -0.044290364 -0.02071325 -0.02693646 -0.009691328 0.018572534
-0.04020183 -0.0036799517 0.015953729 0.014800548 -0.032408617 -0.06270138 -0.14261839 -0.12498287
-0.006513329 0.035983842 0.054051515 -0.06488916 -0.047855668 0.08777541 -0.05879933 0.038959417
-0.09164671 -0.09297789 -0.12834558 -0.042681374 -0.025074689 -0.106477596 -0.02936516 -0.13997327
0.034898292 -0.032859385 -0.08288482 -0.01668046 -0.002322925 0.0026317819 -0.06190329 0.028577143
-0.04001047 0.034312315 -0.030287528 0.053796723 -0.0455217 0.024077902 -0.16540287 -0.04752973
0.00818131 0.0040492862 -0.015639571 -0.020629156 0.015489141 -0.11856626 0.017991455 -0.081569165
0.020328023 -0.061772075 -0.14890154 0.04651435 0.0756196 0.014458014 0.0048176753 -0.10336801
0.012755482 0.00023262437 0.0123082 -0.012024002 -0.16273463 -0.07151775 -0.17301491 -0.025992895
-0.06644458 -0.043962944 -0.113048255 -0.06430018 -0.10121369 0.03516304 -0.08301359 -0.055526327
0.031147892 0.088270076 0.040674876 -0.047490604 0.040193837 0.03726215 0.03756925 -0.00629106
-0.03231577 -0.02104378 -0.04333629 0.0136914905 -0.0017933068 -0.06929858 -0.09825433 0.0032020372
-0.12083323 0.2809594 0.19754179 0.021281794 -0.009606074 -0.29838356 0.04067041 -0.139738
-0.13193168 0.17147754 -0.14070542 0.05468807 -0.12635334 -0.22598055 -0.11050253 0.18630908
0.048791774 -0.1798308 -0.08815205 0.014183328 0.24483688 0.06877047 0.07773161 0.3603668
-0.14703478 0.14922695 0.03182227 0.045912396 0.3670551 0.084976345 0.19384268 0.087133326
0.10417511 -0.23538548 -0.001794532 0.2892466 -0.27653658 -0.025664218 -0.1008437 0.106310904
0.056014873 0.1335842 0.26196244 0.00066690583 -0.10159388 0.0033679546 -0.06477381 0.08384511
0.07984504 0.015988244 0.1645067 0.15243238 0.20942017 -0.2639269 -0.22038212 -0.1555958
-0.11217053 0.11142669 0.17482656 -0.06299775 0.106153995 0.028916419 -0.029438391 0.22170897
0.3075355 -0.083476 0.2458588 -0.0042858156 -0.14763452 0.31267717 -0.012317284 0.13004754
0.17430395 0.019939331 -0.0005378463 0.097419746 0.40031072 0.17475726 0.053266097 0.21876477
0.117108464 -0.28171507 -0.0044803726 0.11273235 -0.02449978 0.23317929 0.23222502 0.056442447
-0.014023555 0.03831385 0.25432143 -0.010174844 0.06917798 0.1922641 -0.010255647 -0.008266746
0.19580556 0.12714362 0.3598893 0.08744916 -0.005009791 0.19943997 0.035986617 -0.032115348
0.12731354 -0.04639888 0.044861462 -0.083331294 -0.07954023 0.07773386 0.034758635 -0.104157336
-0.19398229 0.010792294 -0.14559029 0.30632764 0.25330603 -0.114693835 0.03344279 0.12962398
-0.16107881 0.089914165 -0.038427863 -0.040205065 0.06286576 -0.114777796 0.26802665 0.0041213464
00000000: 201a a6bd fbb7 3a3d 0a66 84bc 5b63 03bd
00000010: 53e8 4dbd 80ff 823d ebaf 18bd 32a8 333c
00000020: c799 4dbd d3d1 2ebe e4f3 053e 1745 1bbd
00000030: 5763 b4bd 0ea7 29bd 5a1f 413d 1bcf dabd
00000040: e5cf 6cbc 8851 25bd 2318 99bd 6706 a73c
00000050: 9606 09bd 060d a5bd 4a31 653c 4680 fa3c
00000060: dfba 373d 16d1 193d 55ac 8bbd d4a6 873d
00000070: 9d3a cfbd 6eb4 0a3d 10b8 63bd e6d8 5ebd
00000080: 7c1d 70bd e705 dfbd 62a2 853c d069 35bd
00000090: d5ae a9bc daa9 dcbc 60c8 1ebc 6d25 983c
000000a0: adaa 24bd 582b 71bb 65b1 823c ff7d 723c
000000b0: e6be 04bd 9569 80bd 8e0a 12be 05f7 ffbd
000000c0: c46d d5bb cb63 133d 1f65 5d3d 9ce4 84bd
000000d0: 4e04 44bd 98c3 b33d 91d7 70bd e993 1f3d
000000e0: 45b1 bbbd 316b bebd 066d 03be aad2 2ebd
000000f0: 6f69 cdbc ed10 dabd 348f f0bc 2755 0fbe
00000100: 83f1 0e3d 9097 06bd 84bf a9bd 76a5 88bc
00000110: 373c 18bb f979 2c3b 4e8e 7dbd 9d1a ea3c
00000120: 05e2 23bd 128b 0c3d 8d1d f8bc f459 5c3d
00000130: f674 3abd 053f c53c 5f5f 29be 89ae 42bd
00000140: e70a 063c e0af 843b 8f1e 80bc 7afe a8bc
00000150: 2bc6 7d3c ded2 f2bd d162 933c bc0d a7bd
00000160: f486 a63c b704 7dbd a579 18be d585 3e3d
00000170: 73de 9a3d 4ee1 6c3c 97dd 9d3b 9bb2 d3bd
00000180: 5ffc 503c a1ec 7339 55a8 493c 5200 45bc
00000190: e8a3 26be e677 92bd d22a 31be 0def d4bc
000001a0: 1914 88bd 7d12 34bd d885 e7bd d0af 83bd
000001b0: 2049 cfbd 1f07 103d 0703 aabd 936f 63bd
000001c0: dd29 ff3c f1c6 b43d b39a 263d 8285 42bd
000001d0: 4ba2 243d 32a0 183d 37e2 193d 3c25 cebb
000001e0: 8a5d 04bd 0164 acbc 6581 31bd 4652 603c
000001f0: 640d ebba 6aec 8dbd 9139 c9bd 45d9 513b
00000200: 6a77 f7bd e9d9 8f3e 6548 4a3e 2857 ae3c
00000210: cb62 1dbc bbc5 98be 0496 263d 7a17 0fbe
00000220: 1919 07be cf97 2f3e 1515 10be 9900 603d
00000230: c562 01be 7267 67be 274f e2bd cfc7 3e3e
00000240: e2d9 473d 9125 38be 1089 b4bd 3061 683c
00000250: 85b6 7a3e 88d7 8c3d c031 9f3d ff81 b83e
00000260: 4990 16be f3ce 183e 1258 023d a30e 3c3d
00000270: a5ee bb3e 1408 ae3d b27e 463e f572 b23d
00000280: c359 d53d e408 71be 8136 ebba 2118 943e
00000290: 3496 8dbe c43d d2bc 2487 cebd 88b9 d93d
000002a0: da6f 653d 4cca 083e f11f 863e 4bd3 2e3a
000002b0: 7410 d0bd e7b8 5c3b 22a8 84bd fcb6 ab3d
000002c0: cc85 a33d c7f9 823c 7274 283e 3c17 1c3e
000002d0: 3e72 563e 6d21 87be daab 61be 8154 1fbe
000002e0: aab9 e5bd ad33 e43d bc05 333e f704 81bd
000002f0: 4467 d93d 20e2 ec3c c828 f1bc ad07 633e
00000300: 4b75 9d3e 77f5 aabd 69c2 7b3e 0770 8cbb
00000310: 812d 17be 3917 a03e 6fce 49bc 2f2b 053e
00000320: bc7c 323e cf57 a33c 41fe 0cba 0184 c73d
00000330: 87f5 cc3e 91f3 323e 8d2d 5a3d df03 603e
00000340: 90d6 ef3d f53c 90be 17d0 92bb 38e0 e63d
00000350: c3b3 c8bc 8dc6 6e3e 65cc 6d3e 3230 673d
00000360: 0ec3 65bc fcee 1c3d 6b36 823e 64b4 26bc
00000370: 2fad 8d3d e1e0 443e 4d07 28bc 3f71 07bc
00000380: 4181 483e f031 023e 6943 b83e 8c18 b33d
00000390: 2c29 a4bb fe39 4c3e b466 133d 628b 03bd
000003a0: 7b5e 023e c10c 3ebd a7c0 373d 99a9 aabd
000003b0: fde5 a2bd ee32 9f3d 125f 0e3d 7150 d5bd
000003c0: 4ba3 46be 29d2 303c 9f15 15be fad6 9c3e
000003d0: 54b1 813e 9ae4 eabd 4ffb 083d 26bc 043e
000003e0: d8f1 24be eb24 b83d 8966 1dbd 11ae 24bd
000003f0: c3bf 803d 9f10 ebbd ca3a 893e 5c0c 873b

rnn.weight_ih_l0_reverse f4 [384, 100]
-0.0089837415 -0.0075729564 -0.010826156 -0.065049715 -0.029183721 -0.0062761754 -0.049697947 -0.12456312
0.035329 0.0654788 0.148114 -0.0010037927 0.069084376 -0.021095118 -0.044061232 0.18567741
0.26095468 -0.023742195 0.013530591 0.12957829 0.17885108 -0.1307772 -0.07109544 0.04330729
0.014583752 0.038018588 -0.035575055 0.032901164 -0.05904082 -0.03490142 -0.08564757 -0.0930578
-0.044925667 0.05539423 0.06701401 -0.09071552 -0.015088321 -0.0652608 -0.00023377013 -0.10548602
-0.06484979 -0.21818039 -0.10810935 -0.043847993 -0.20800257 -0.060549352 -0.09325591 -0.049445994
-0.09855785 -0.08850491 -0.024504818 0.0038090283 0.104061924 0.008567971 0.014278901 -0.015682936
-0.124740586 0.036113728 0.054627594 -0.042949453 -0.10126543 -0.03821213 0.09934219 -0.064431354
-0.120745465 0.03227552 -0.13008374 -0.010833573 0.0070658866 0.12179991 0.01726452 0.09931217
-0.026838526 -0.012922206 0.056920566 -0.046277538 -0.02813605 -0.0547318 -0.018277247 -0.08022463
-0.13896576 -0.018810347 -0.073786676 0.055327304 -0.16748652 -0.023408728 -0.09841627 0.045216303
-0.136672 0.021824269 -0.06113233 -0.20674463 -0.16110392 -0.00020120376 0.0104953 -0.10116347
-0.0663626 0.004095219 0.03297583 0.018511277 0.047556642 -0.06652322 -0.055875055 0.018376889
0.088053145 0.09444232 -0.104937315 0.04793393 -0.08213216 -0.046813678 0.007105181 -0.030635241
0.15331763 0.019362152 0.058767565 0.20180357 0.14976178 -0.035745412 0.07679234 0.2691253
0.30466548 0.0260159 0.03279022 0.061709803 0.010985323 -0.00061512756 -0.035236493 -0.057865117
0.015959715 -0.06329041 -0.05010664 -0.03072806 0.048615735 -0.11932908 0.11970045 -0.11806336
-0.063310996 -0.13041231 0.019057507 -0.001333663 -0.037371628 -0.10575471 0.033962946 0.012020789
-0.045731165 0.0010750405 0.009153469 -0.03987361 -0.058277294 0.027358063 -0.10033754 0.035770804
0.110509634 0.09188962 -0.027702887 -0.017175585 0.044769194 -0.056681447 0.0013379429 -0.06024633
-0.060123507 -0.08670261 0.23681614 -0.1014688 -0.041449048 0.026610674 -0.029338777 0.040323995
0.061484665 -0.07473926 -0.09887557 0.2166429 0.04548852 0.10176913 0.04204562 -0.050230674
0.051236596 0.012772314 -0.03071992 -0.098519154 0.075876385 0.017418258 -0.09234629 0.04794789
0.001249561 0.009650321 -0.03850576 -0.0015238869 -0.012807152 -0.05966744 -0.076623864 -0.11002446
-0.10947434 0.09171653 0.10074986 -0.08194154 -0.057805523 -0.08676079 0.0752368 0.037745923
-0.005265022 -0.0831209 -0.029894527 -0.01462324 -0.043406636 -0.05976289 0.10273457 -0.24933873
0.0358506 0.10961031 0.03779005 0.2095658 0.09525014 0.13949284 0.000749967 -0.046255648
-0.03385998 -0.14680964 -0.00653873 -0.3769806 -0.2693573 -0.31862888 0.024446307 0.033465292
-0.027616514 0.033990145 0.047820073 -0.011828381 -0.016372755 0.06446852 -0.029738791 0.19446123
0.013416203 0.100824885 0.08329028 -0.097022675 0.0531019 -0.0372508 -0.054156568 0.1468561
-0.033882327 -0.07120812 0.037166912 0.15866391 -0.08550363 -0.016174044 -0.024606174 -0.19656321
0.057251625 -0.12626418 0.08633224 -0.12851173 -0.10473923 -0.02013145 0.009745731 -0.123974234
00000000: 8b30 13bc 9026 f8bb 3060 31bc c938 85bd
00000010: b312 efbc 60a8 cdbb 1390 4bbd f31a ffbd
00000020: 24b5 103d c019 863d 32ab 173e b291 83ba
00000030: 1c7c 8d3d abcf acbc 8d79 34bd 3822 3e3e
00000040: da9b 853e fe7e c2bc 69af 5d3c 2cb0 043e
00000050: bd24 373e 75ea 05be 7c9a 91bd fc62 313d
00000060: b0f0 6e3c 61b9 1b3d 26b7 11bd 5fc3 063d
00000070: c9d4 71bd cbf4 0ebd fe67 afbd 1695 bebd
00000080: fa03 38bd 0fe5 623d a43e 893d 0fc9 b9bd
00000090: 0135 77bc 74a7 85bd 3120 75b9 0e09 d8bd
000000a0: f7cf 84bd ae6a 5fbe 6f68 ddbd f499 33bd
000000b0: a0fe 54be 9902 78bd f4fc bebd e287 4abd
000000c0: b3d8 c9bd 1042 b5bd 54be c8bc e4a0 793b
000000d0: 6b1e d53d ad60 0c3c 0df2 693c 8079 80bc
000000e0: fe77 ffbd fdeb 133d 2fc1 5f3d c4eb 2fbd
000000f0: 4064 cfbd 5384 1cbd eb73 cb3d 96f4 83bd
00000100: 6649 f7bd 5633 043d ac34 05be 4c7f 31bc
00000110: f488 e73b 3b72 f93d 536e 8d3c 2e64 cb3d
00000120: 78dc dbbc a9b7 53bc 8a25 693d 848d 3dbd
00000130: 937d e6bc 742e 60bd 2aba 95bc d04c a4bd
00000140: 0a4d 0ebe 2818 9abc 781d 97bd e29e 623d
00000150: 9681 2bbe a9c3 bfbc 788e c9bd bb34 393d
00000160: bff3 0bbe cfc8 b23c e565 7abd ddb4 53be
00000170: 6df8 24be 39fa 52b9 7bf4 2b3c cb2e cfbd
00000180: 1de9 87bd 3031 863b aa11 073d f6a4 973c
00000190: c1ca 423d 533d 88bd 3edd 64bd 218b 963c
000001a0: 3555 b43d fa6a c13d 60e9 d6bd 5e56 443d
000001b0: e834 a8bd b3bf 3fbd 94d2 e83b c2f6 fabc
000001c0: 4cff 1c3e 609d 9e3c 42b6 703d 98a5 4e3e
000001d0: 275b 193e c869 12bd 4d45 9d3d cbca 893e
000001e0: 1dfd 9b3e 4c1f d53c 0a4f 063d 6bc3 7c3d
000001f0: c9fb 333c 8340 21ba 2454 10bd f903 6dbd
00000200: f3bd 823c 679e 81bd 9f3c 4dbd 6ab9 fbbc
00000210: 4b21 473d ce62 f4bd 8225 f53d 34cb f1bd
00000220: 32a9 81bd ce8a 05be 7d1e 9c3c 4ece aeba
00000230: fe12 19bd ed95 d8bd bb1c 0b3d d8f2 443c
00000240: 9a50 3bbd 60e8 8c3a 6ef8 153c 8352 23bd
00000250: 2cb4 6ebd 041e e03c c57d cdbd 6884 123d
00000260: e052 e23d a030 bc3d 2af1 e2bc d0b3 8cbc
00000270: e75f 373d ce2a 68bd ea5d af3a dbc4 76bd
00000280: 1144 76bd 2391 b1bd ee7f 723e e0ce cfbd
00000290: 7ac6 29bd a1fe d93c e057 f0bc c62a 253d
000002a0: 58d7 7b3d e610 99bd 467f cabd a3d7 5d3e
000002b0: 2c52 3a3d 556c d03d 0738 2c3d aebe 4dbd
000002c0: 77dd 513d f842 513c 57a8 fbbc 69c4 c9bd
000002d0: 1465 9b3d bcb0 8e3c 0d20 bdbd 0265 443d
000002e0: 4fc8 a33a 611c 1e3c 37b8 1dbd 29bd c7ba
000002f0: 17d5 51bc d865 74bd f9ec 9cbd 8154 e1bd
00000300: 1534 e0bd e0d5 bb3d f155 ce3d f7d0 a7bd
00000310: 7cc5 6cbd a4af b1bd c015 9a3d 789b 1a3d
00000320: 3586 acbb 4a3b aabd 5ee5 f4bc 5096 6fbc
00000330: 28cb 31bd efc9 74bd 8166 d23d a752 7fbe
00000340: 14d8 123d 5f7b e03d bdc9 1a3d 6b98 563e
00000350: 8112 c33d 36d7 0e3e 6f99 443a 9076 3dbd
00000360: c3b0 0abd 4455 16be d842 d6bb 9a03 c1be
00000370: 33e9 89be 5323 a3be 9f43 c83c e712 093d
00000380: 073c e2bc 4039 0b3d fbde 433d d3cb 41bc
00000390: 2820 86bc 1208 843d c49e f3bc d820 473e
000003a0: a2cf 5b3c 477d ce3d 1894 aa3d d3b3 c6bd
000003b0: 6181 593d 4b94 18bd 47d3 5dbd 7261 163e
000003c0: 32c8 0abd 90d5 91bd 553c 183d cb78 223e
000003d0: 871c afbd 6e7f 84bc e392 c9bc de47 49be
000003e0: ae80 6a3d 664b 01be f5ce b03d 9498 03be
000003f0: 8581 d6bd b6ea a4bc 8fac 1f3c 34e6 fdbd

rnn.weight_hh_l0_reverse f4 [384, 128]
0.029362168 0.043364048 0.045367785 -0.011176268 0.012981626 0.037479673 -0.0022019176 -0.07361123
0.065814145 -0.010598923 0.0268824 0.06123946 -0.0488184 -0.108971365 0.07800141 -0.007318995
-0.096531264 0.06395994 0.0115184 0.04110002 -0.040944718 -0.07356562 -0.07763962 -0.030371975
-0.1001005 -0.04190775 0.020705435 0.004649537 0.11006077 0.0026232423 0.057331663 0.05293307
0.0914839 0.023180353 0.009560107 0.032291874 -0.05806893 0.010550145 -0.021067163 0.10174592
0.078672215 -0.042189583 0.048751205 0.07730877 0.007265097 -0.022929957 0.029988812 0.04769435
0.012541402 0.039591055 0.012212923 -0.10766033 0.03968923 -0.09226476 -0.015378233 0.035112355
-0.07459521 0.09476983 -0.08160127 0.015165947 0.017568449 -0.03349285 0.09129042 -0.0881417
-0.0673436 -0.05276231 0.06844829 0.08209371 -0.07049886 0.12567785 -0.08891243 -0.05758671
0.049742986 0.10331571 0.010468161 0.03474164 -0.009387613 0.06692263 -0.0044480483 -0.009549724
-0.07971471 -0.037259053 -0.025377393 -0.045906182 -0.011282349 -0.05078802 0.07437816 -0.040348753
-0.07599392 0.007437768 -0.06634199 -0.06804514 0.032795645 -0.004504108 -0.083346665 -0.052592304
-0.0057257945 -0.104186356 -0.11418227 0.020939467 0.023062656 -0.031908084 0.10474526 -0.05099523
0.03340336 0.05347109 -0.015152243 -0.029603917 -0.020905713 0.031160802 0.07923081 0.11955252
-0.0064993235 -0.09909063 -0.04402544 -0.027109979 -0.038192026 0.025480028 -0.01067795 0.05404306
0.0133348275 0.011243878 0.0049626087 -0.021198072 0.06214542 -0.030083679 0.04353109 0.011850569
0.05306587 0.0071527637 -0.059612136 0.0053709177 0.027602112 0.040911645 0.049957722 0.070612565
0.04002678 0.029343044 0.03080513 0.05174635 0.009852252 -0.027891444 0.0906578 0.10225359
-0.050638363 0.067435816 0.086853385 -0.04012128 -0.0048640026 0.09320511 0.004856335 0.12568898
-0.050470404 0.074385025 0.020289205 -0.088476725 0.068403535 0.051576298 0.07392791 0.09138867
0.05921228 -0.0828489 0.08420366 -0.008213731 -0.09839311 -0.039641634 -0.041797113 0.09326743
0.04837859 0.08511335 0.08223071 -0.08291179 0.0954161 -0.003904145 -0.08533349 0.037266936
0.10259735 -0.08283278 -0.008882525 0.112756334 -0.0441434 0.07190882 -0.039109167 0.11025887
-0.039103795 0.076634265 -0.033128526 0.022140073 0.008383819 -0.012334183 -0.005142122 -0.041453313
0.035855155 -0.052350305 0.04258248 0.06287239 -0.042350516 -0.04849326 -0.051043298 0.094056085
0.039821513 -0.084126174 0.035108138 0.024863577 -0.010181426 -0.023543878 0.033334937 0.012285856
-0.04982876 0.006269621 -0.12535463 0.02175049 -0.07206226 0.0131607 0.03190976 0.026698362
0.053887304 0.05979214 0.03266841 -0.03646671 0.0496763 -0.020546883 -0.014798504 0.022834565
0.06223069 0.05456299 0.005771655 0.032908943 0.031293806 0.07258619 0.015586008 0.054942902
0.070897534 -0.0081224535 0.069655746 0.010941786 -0.10327869 0.042590156 -0.003745847 0.053364158
-0.023257127 0.010028443 0.03556685 0.018769622 -0.0031437909 -0.08544764 -0.012252842 -0.08720172
0.102845706 0.10553467 0.03636749 0.03682295 0.06886078 0.027866364 0.017994355 -0.110589005
00000000: ee88 f03c 809e 313d 92d3 393d aa1c 37bc
00000010: e3b0 543c 4984 193d 0c4e 10bb 7cc1 96bd
00000020: 91c9 863d 1ba7 2dbc 7b38 dc3c 3ad6 7a3d
00000030: cdf5 47bd 612c dfbd 34bf 9f3d 2ed4 efbb
00000040: 2fb2 c5bd 6efd 823d acb7 3c3c 7f58 283d
00000050: a6b5 27bd 92a9 96bd 8501 9fbd a6ce f8bc
00000060: 7e01 cdbd 76a7 2bbd 729e a93c 255b 983b
00000070: 8a67 e13d b4ea 2b3b 9bd4 6a3d 59d0 583d
00000080: e95b bb3d b9e4 bd3c ffa1 1c3c 7c44 043d
00000090: b0d9 6dbd 84da 2c3c 0b95 acbc 2a60 d03d
000000a0: e61e a13d fcce 2cbd 58af 473d 0f54 9e3d
000000b0: 0d10 ee3b 9bd7 bbbc 19ab f53c 275b 433d
000000c0: 747a 4d3c 3b2a 223d b618 483c 057d dcbd
000000d0: 2d91 223d 4ef5 bcbd fcf4 7bbc f9d1 0f3d
000000e0: 60c5 98bd af16 c23d 911e a7bd 987a 783c
000000f0: b5eb 8f3c cc2f 09bd 79f6 ba3d a383 b4bd
00000100: 71eb 89bd 4b1d 58bd 9e2e 8c3d bf20 a83d
00000110: b561 90bd b2b1 003e b817 b6bd 0be0 6bbd
00000120: 4dbf 4b3d 3097 d33d a682 2b3c 404d 0e3d
00000130: 81ce 19bc bb0e 893d efc0 91bb 7276 1cbc
00000140: 7741 a3bd f39c 18bd 40e4 cfbc 1f08 3cbd
00000150: 9ad9 38bc 1907 50bd 9453 983d bc44 25bd
00000160: b3a2 9bbd 85b8 f33b 4fde 87bd 405b 8bbd
00000170: ba54 063d 3297 93bb a8b1 aabd 076b 57bd
00000180: 729f bbbb a85f d5bd 65d8 e9bd 3f89 ab3c
00000190: e5ed bc3c 0db2 02bd af84 d63d 60e0 50bd
000001a0: f6d1 083d 8004 5b3d 1d41 78bc ea83 f2bc
000001b0: 7542 abbc f044 ff3c c343 a23d f4d7 f43d
000001c0: 47f8 d4bb 07f0 cabd 0554 34bd bf15 debc
000001d0: 3e6f 1cbd 7ebb d03c 92f2 2ebc 415c 5d3d
000001e0: 527a 5a3c 3e38 383c 619d a23b 94a7 adbc
000001f0: 328c 7e3d 0c72 f6bc a84d 323d e428 423c
00000200: 995b 593d bb61 ea3b db2b 74bd 86fe af3b
00000210: d31d e23c f892 273d 78a0 4c3d 529d 903d
00000220: 1ff3 233d d360 f03c 0a5b fc3c fbf3 533d
00000230: 576b 213c 997c e4bc ccaa b93d 556a d13d
00000240: 2c6a 4fbd ca1b 8a3d 30e0 b13d 3656 24bd
00000250: 3662 9fbb 52e2 be3d e421 9f3b 9db4 003e
00000260: 0eba 4ebd 2d57 983d 8c35 a63c 4933 b5bd
00000270: 2717 8c3d ab41 533d 8467 973d fc29 bb3d
00000280: 9388 723d afac a9bd f872 ac3d e392 06bc
00000290: 5482 c9bd 445f 22bd 7333 2bbd ff02 bf3d
000002a0: a128 463d e84f ae3d 9368 a83d a8cd a9bd
000002b0: 8469 c33d afdc 7fbb 53c3 aebd 37a5 183d
000002c0: 8f1e d23d 3ca4 a9bd 0388 11bc cbec e63d
000002d0: b6cf 34bd ee44 933d ef30 20bd 67cf e13d
000002e0: 4d2b 20bd 6df2 9c3d c7b1 07bd 195f b53c
000002f0: 495c 093c 5015 4abc 3f7f a8bb f3ca 29bd
00000300: dbdc 123d 466d 56bd f76a 2e3d 3dc3 803d
00000310: bc77 2dbd dea0 46bd c712 51bd 7aa0 c03d
00000320: e21b 233d 584a acbd 8dcd 0f3d b3ae cb3c
00000330: ffcf 26bc 17df c0bc 378a 083d 9d4a 493c
00000340: 3e19 4cbd 6571 cd3b f75c 00be 152e b23c
00000350: 6195 93bd fa9f 573c cfb3 023d 86b6 da3c
00000360: efb8 5c3d 9ae8 743d 50cf 053d 1e5e 15bd
00000370: 6079 4b3d f051 a8bc 6d75 72bc 8e0f bb3c
00000380: 9ce5 7e3d 717d 5f3d 2720 bd3b 87cb 063d
00000390: ef2d 003d 12a8 943d 755c 7f3c cf0b 613d
000003a0: ba32 913d 0a14 05bc aca7 8e3d 2d45 333c
000003b0: c783 d3bd 0473 2e3d e27c 75bb 6094 5a3d
000003c0: bb85 bebc 574e 243c 8cae 113d c0c2 993c
000003d0: 0f08 4ebb 2cff aebd 25c0 48bc d196 b2bd
000003e0: c5a0 d23d 9022 d83d 14f6 143d a9d3 163d
000003f0: e106 8d3d 0048 e43c e668 933c 7d7c e2bd

rnn.bias_ih_l0_reverse f4 [384]
-0.15256967 -0.048645966 0.019958692 -0.17717767 0.06234461 -0.0885678 0.09457343 -0.08355746
-0.13831398 0.03632083 -0.016948618 -0.054978754 -0.089474 0.08309206 -0.060675044 0.0466558
-0.044470374 -0.09236023 -0.0011855082 -0.07069952 -0.04111782 -0.1382317 -0.05634519 0.11216807
0.0041816575 0.036191802 0.0023006976 -0.06730018 -0.0131564755 -0.058172252 0.019374771 -0.083261825
-0.08780284 0.07373037 -0.087029375 -0.09843664 -0.025632039 0.06518461 -0.04499438 0.107762076
0.062480386 0.0030063966 -0.06305322 -0.044374976 -0.028925993 0.19383155 -0.060474124 -0.0026613178
-0.041610368 -0.029221758 -0.05759601 -0.13449056 -0.07037863 -0.003692237 0.039797746 -0.03958674
-0.042301092 -0.0032262672 -0.013050801 -0.05268572 0.050010577 0.015536875 -0.043653578 -0.0370934
-0.08040666 -0.15462413 -0.0006429423 0.001796233 -0.1074239 0.17731246 -0.00958594 -0.09963521
-0.0476236 -0.072226375 -0.05341187 -0.03946196 -0.008452232 -0.023212127 0.067673065 -0.07999635
0.010469622 -0.025768414 0.0022410257 -0.05094268 -0.14922051 -0.06354882 -0.028615592 0.0674616
0.0020188487 -0.124247976 -0.04853559 0.08215898 -0.13546869 0.020926747 -0.025564581 0.0055974415
-0.03448623 0.03281596 -0.05060126 -0.039363675 -0.043476246 -0.06911781 0.05305623 0.009171015
-0.1206857 -0.029172907 -0.024138428 -0.11396272 -0.072656974 -0.07576277 -0.10840813 0.12041828
-0.052627902 0.039626293 -0.08514861 0.000111164816 0.007846101 0.0034932878 -0.015876995 0.048253365
0.014157482 0.054086056 0.062127087 -0.09214023 -0.034256365 0.0068478766 -0.00320954 -0.10200166
-0.009771993 0.18244436 -0.23673163 0.3300311 0.2155556 0.06672448 0.3161328 0.20441091
-0.03241721 0.088630795 0.10792555 0.06015593 0.21607655 -0.02453819 0.20250061 -0.061509784
0.04477413 -0.16446687 0.093337655 0.22320315 0.16466504 -0.08253392 0.0038000774 0.19729522
0.21647714 -0.055659834 0.06966441 0.06743353 0.11858221 -0.1730422 0.28954527 0.102509975
0.001709002 -0.059324298 0.12384942 0.14412583 -0.048060864 0.19463283 0.22160657 0.15068051
0.17739627 0.0006921589 0.026692862 -4.7388872e-07 0.11604063 0.23422092 0.17340204 -0.0569747
0.056140024 0.07053396 -0.013057768 -0.22255148 0.09910782 -0.06679758 0.006642353 0.024234192
0.18586583 0.23433074 -0.035986863 0.12611187 0.089385815 0.22338334 0.15404958 0.06917396
0.14858855 0.046537086 0.029859427 0.10303242 -0.062034443 0.24024314 0.00039919195 0.21976246
0.07770794 0.1937911 0.2751724 0.19234236 0.13182831 -0.028671425 0.09238676 0.1761376
0.04349854 0.11386145 0.17005871 0.046778362 0.026805783 0.06984355 0.2002338 0.18306743
0.034553666 0.20933938 -0.2054375 0.0758433 -0.041748594 0.06728445 0.032645393 -0.03512204
0.051659696 0.09395423 0.047181003 0.15152644 0.09739202 0.2783304 -0.11681701 0.116739556
0.19191192 0.12616807 -0.16294695 -0.16021681 -0.10025372 0.039881926 -0.09722246 0.30905947
-0.205702 0.0852445 0.07907884 0.027562115 0.15777923 0.09893976 0.31163484 0.2675688
0.16560902 0.11334609 0.048359953 0.07613257 0.06344633 -0.033340648 0.13207012 -0.06866422
00000000: 393b 1cbe fe40 47bd 6980 a33c 106e 35be
00000010: 105d 7f3d 0963 b5bd b7af c13d 2c20 abbd
00000020: 2ea2 0dbe 27c5 143d d4d7 8abc 6731 61bd
00000030: 253e b7bd 2c2c aa3d 6586 78bd 271a 3f3d
00000040: 9126 36bd 5c27 bdbd 0e63 9bba e9ca 90bd
00000050: 296b 28bd 9c8c 0dbe 37ca 66bd 60b8 e53d
00000060: 4906 893b db3d 143d 4dc7 163b add4 89bd
00000070: 428e 57bc 0746 6ebd d7b7 9e3c 2d85 aabd
00000080: fad1 b3bd f3ff 963d 753c b2bd 2699 c9bd
00000090: 48fa d1bc 827f 853d 074c 38bd 5db2 dc3d
000000a0: 6feb 7f3d f706 453b 0c22 81bd 89c2 35bd
000000b0: 34f6 ecbc c77b 463e b7b3 77bd 8169 2ebb
000000c0: a26f 2abd 7862 efbc cbe9 6bbd e5b7 09be
000000d0: ac22 90bd 75f9 71bb f602 233d b525 22bd
000000e0: e943 2dbd c86f 53bb 07d3 55bc fbcc 57bd
000000f0: e4d7 4c3d 618e 7e3c 18ce 32bd 40ef 17bd
00000100: 3fac a4bd ca55 1ebe 218b 28ba 946f eb3a
00000110: 1001 dcbd 6691 353e 590e 1dbc 8c0d ccbd
00000120: f710 43bd 6ceb 93bd 68c6 5abd dda2 21bd
00000130: 3b7b 0abc 5c27 bebc 2d98 8a3d 20d5 a3bd
00000140: c788 2b3c 4818 d3bc 2cde 123b 46a9 50bd
00000150: 43cd 18be e225 82bd 3f6b eabc 4f29 8a3d
00000160: a94e 043b b975 febd 41cd 46bd f842 a83d
00000170: 4eb8 0abe 926e ab3c d06c d1bc be6a b73b
00000180: 6f41 0dbd 076a 063d 4443 4fbd ce3b 21bd
00000190: 2614 32bd a38d 8dbd 7d51 593d 0642 163c
000001a0: 102a f7bd 05fc eebc f4bd c5bc 4965 e9bd
000001b0: 2ecd 94bd 8329 9bbd 1505 debd dc9d f63d
000001c0: 5b90 57bd 2e4f 223d 6562 aebd 2821 e938
000001d0: ef8c 003c a5ef 643b 7910 82bc 52a5 453d
000001e0: c9f4 673c 5789 5d3d f978 7e3d 04b4 bcbd
000001f0: 6750 0cbd 2764 e03b 2557 52bb 3fe6 d0bd
00000200: b61a 20bc b2d2 3a3e c769 72be d6f9 a83e
00000210: 9bba 5c3e d8a6 883d 29dc a13e 1851 513e
00000220: e9c7 04bd 1084 b53d 1208 dd3d 1166 763d
00000230: 2c43 5d3e 5004 c9bc 525c 4f3e aff1 7bbd
00000240: 1465 373d 016a 28be d027 bf3d 5e8f 643e
00000250: f49d 283e 8b07 a9bd b80a 793b c207 4a3e
00000260: 2fac 5d3e 91fb 63bd 37ac 8e3d 971a 8a3d
00000270: 3bdb f23d f931 31be 473f 943e c0f0 d13d
00000280: 9700 e03a 09fe 72bd c4a4 fd3d b995 133e
00000290: 78db 44bd d44d 473e d5ec 623e fe4b 1a3e
000002a0: 5ea7 353e ff71 353a fdaa da3c c56a feb4
000002b0: b6a6 ed3d 9cd7 6f3e 4e90 313e 4e5e 69bd
000002c0: 15f3 653d 1c74 903d 40f0 55bc 89e4 63be
000002d0: 0af9 ca3d 2bcd 88bd 18a8 d93b c986 c63c
000002e0: 9d53 3e3e 66f4 6f3e f666 13bd 7823 013e
000002f0: e90f b73d 9abe 643e 2cbf 1d3e 14ab 8d3d
00000300: 9927 183e ac9d 3e3d c29b f43c a902 d33d
00000310: d417 7ebd 4c02 763e a34a d139 6909 613e
00000320: 5725 9f3d 2d71 463e 66e3 8c3e 65f5 443e
00000330: 00fe 063e 56e0 eabc 4535 bd3d 6a5d 343e
00000340: 862b 323d 3130 e93d df23 2e3e ab9a 3f3d
00000350: cd97 db3c 230a 8f3d 170a 4d3e 0776 3b3e
00000360: 2588 0d3d 105d 563e 355e 52be bb53 9b3d
00000370: 9300 2bbd 6ecc 893d 2db7 053d 21dc 0fbd
00000380: 1e99 533d 136b c03d de40 413d bf29 1b3e
00000390: 7875 c73d 5281 8e3e c23d efbd 2615 ef3d
000003a0: 8f84 443e 3432 013e 91db 26be e00f 24be
000003b0: d351 cdbd 3b5b 233d 921c c7bd 0b3d 9e3e
000003c0: 8ca3 52be ab94 ae3d 16f4 a13d f2c9 e13c
000003d0: e190 213e eea0 ca3d 9a8e 9f3e c7fe 883e
000003e0: 6995 293e ff21 e83d 1615 463d 65eb 9b3d
000003f0: 26f0 813d 3490 08bd 643d 073e d49f 8cbd
